AutogluonModels/ag-20240429_230251/models/NeuralNetFastAImodel-internals.pkl (torch, 135764 bytes, 15 tensors)

weight f4 [17]
00000000: b2dc 7e3f 1458 803f 5737 783f 93d8 813f
00000010: 5f2d 793f a088 723f 60c9 813f 6b05 743f
00000020: 92a0 803f f4a9 733f a529 7e3f 4a1e 803f
00000030: a87d 863f 5d76 773f 0cef 703f aabd 833f
00000040: 6f1a 823f
0.99555504 1.0026879 0.9695944 1.0144218 0.97334856 0.94739723 1.013958 0.9532077
1.0049002 0.951812 0.99282295 1.0009243 1.0507097 0.96664983 0.94114757 1.0292256
1.0164317

bias f4 [17]
00000000: e9bd a0bc 31fc f6bc 9d86 9e3c 301e 3c3d
00000010: c6b2 47bd e149 c03b 63f5 12bd 1127 333c
00000020: b283 8cbc 4d30 dbbc 1c43 19bd fade 07bd
00000030: d082 9b3d b019 29bc 6909 373d 42e9 d93b
00000040: 7570 bfbd
-0.019621806 -0.030149551 0.019351298 0.045927227 -0.048754476 0.005868182 -0.03587855 0.010934607
-0.017152641 -0.02675643 -0.037417516 -0.03317163 0.0759331 -0.010321066 0.04468671 0.006650121
-0.09347621

running_mean f4 [17]
00000000: ea1b 20bc 8485 543c 3e29 89bc 6f92 933b
00000010: 6c2b 32bc 55f0 2dbc a0d7 d63b cf57 203c
00000020: 6d2e 2fbc 2b2c e53b cf3f 0cbc db78 063c
00000030: bf9c 6bbc 0ac4 653b 8a8b 59bc 63a8 31bc
00000040: 2d7b ae3b
-0.00977228 0.012971286 -0.016743299 0.00450354 -0.01087461 -0.010616382 0.006556466 0.00978656
-0.010692221 0.0069937906 -0.008560135 0.008207525 -0.014380633 0.0035059475 -0.013277898 -0.010843369
0.0053247423

running_var f4 [17]
00000000: 7bef 853f 1513 8c3f 433d 7f3f bc10 7e3f
00000010: eaf5 7d3f 0ed0 7a3f c270 7d3f 732d 7d3f
00000020: 0e22 813f 982c 7f3f 223f 803f d329 7d3f
00000030: 7062 7e3f d464 6b3f fc81 783f 2cff 783f
00000040: 61d5 823f
1.0463709 1.0943323 0.9970285 0.99244285 0.9920336 0.97973716 0.9900018 0.98897475
1.0088518 0.9967742 1.0019267 0.98891944 0.99368954 0.91950727 0.9707334 0.9726436
1.0221368

weight f4 [200, 17]
00000000: 6ba8 0fbd 66e5 173e 0381 31be d482 42be
00000010: eeee 2dbd cd39 ed3d b8da 2bbc c318 3c3e
00000020: ebb0 4ebd a8ce 523d 7868 cbbd 9f21 17bd
00000030: a75a 65be a081 2dbe c73d b5bd 1d4a 093d
00000040: ae7e 183e 7d2b 1b3e 38f2 40be ed38 0cbe
00000050: 78ef b23d 3f10 623e 054e 00bd 55f1 3d3e
00000060: 048d 07bd 0fc6 efbb 7cde 543e b7f4 54be
00000070: 4720 41be a7cc 8fbd 5b14 10be 9be8 473e
00000080: 28a4 13be f9bf 2cbe 33d8 20be 4096 82be
00000090: 787b 2bbe ae10 4f3e ed1c bf3d aa9a d43d
000000a0: add8 c03d a6b6 d4bd ed55 233d 3864 6dbe
000000b0: 9e9d 31be 1b54 d2bd 8f9d 443e 90c9 173e
000000c0: 00d3 9fbd 3329 c9bb c9c5 2b3e a650 7a3e
000000d0: 5c10 c73d a087 473d becd 2f3e 9cb8 14be
000000e0: 2baf 213c cb98 55be 381d 1fbe c457 02be
000000f0: 480e 053e 01f1 be3d a035 07be 474d 2d3d
00000100: 2072 ee3d d50f fbbc 12c0 423c 27b1 ba3c
00000110: 8879 3a3e 64ca 6c3e 134b 74be 1515 76bd
00000120: bb0c af3d 7cfd 403e 03d9 343e 7597 783e
00000130: 7c24 973c a7c9 28be 5ebc 98bb 77cc f3bd
00000140: ef3b 9cbe 46fd 333e dd1c 413e 7e81 68be
00000150: 8c81 bb3c c3e4 6c3c 2086 ecbc 8194 04be
00000160: d333 153e 351c 20be 58ec 7d3d 9ee0 fb3d
00000170: 2cf5 5d3e 16b6 d43d 279b 47be 1f50 13be
00000180: 4192 153e 2024 c23d dee2 33be c2df 2abe
00000190: 0f2b 523e 7120 653e a9ad cbbd fceb 53bd
000001a0: 166e 58be 4d54 9a3c 6109 3ebe 9f07 5bbe
000001b0: 025e 6dbd 1fcd a23d ec2e 08be ae5d ea3d
000001c0: a07c 35be ba1c 6d3e 7d89 163e ac93 3bbe
000001d0: eb4a 95bd 621b 16bd ea59 593d af3f 9e3d
000001e0: 17a4 e83d 3390 d2bc 016e b5bd 2eed cf3d
000001f0: 25cf 89be 4bbb 2ebe 01f0 2abd 66a6 f6bd
00000200: 0166 81bd 0938 45be 34b0 92bd 784d bf3d
00000210: cac8 3abe 2e29 8fbc 5c3c 183e 0c03 5cbd
00000220: 021e 293c 2d56 85bd 6c41 323d 597b 103e
00000230: c735 4c3e 023f 113e 9fee 573e 30d1 16bc
00000240: 9111 33be da16 14be fee7 293e 07c1 3a3c
00000250: b1d3 1fbe 474f 7cbe 0fe2 30be 43d2 34be
00000260: ab72 afbd 3d89 153e 2c4b de3d fa5b 79be
00000270: 7d86 103e 8635 79be 2e70 83bd 895e c6bd
00000280: 7308 c8bc 0df4 82bd 06da 69be 0182 62be
00000290: 8c98 44bd 5e89 a6bd af78 f1bd bfd5 7c3d
000002a0: a3ed 42be 551e 12bd 82b4 713e ea58 d6bd
000002b0: 2405 2d3e 1c81 df3d c8aa 69be a6c2 183e
000002c0: e68c 163b 2ddb d8bd 03b4 513e 14c6 6fbe
000002d0: a9b9 513d 4112 c4bd 4ad5 683e 490d d83d
000002e0: 872a a13d 214e 353d f70b 0dbd 2edd a4bc
000002f0: 0040 6bbe 318c 0e3e b5d3 603e b76e 2f3e
00000300: b068 17be 7116 7f3d 4ba8 53be 7435 e8bd
00000310: a61d dbbd 632c d53d 6d57 1cbe 00c6 833d
00000320: b62e 35bc 2735 113e 5be3 67be ff65 f4bd
00000330: d810 2cbe f6ee 4a3e 412f e0bd 34f3 673e
00000340: a894 c73d e539 6c3d 63a0 87bc 2430 97bc
00000350: 1f5a 043b ef1e 32bd 8d0c e2bc 719d 313d
00000360: f7b8 38be 5d5d dabd 7f0a 513e 27db 27be
00000370: d08c 323b 008b 4d3e 4959 5a3d a7a9 4fbc
00000380: 647f 83be 6b02 063e 4d5c 2cbe 6292 13bd
00000390: 1d51 f2bd 514f 2fbc cb02 29bd e5ee 673e
000003a0: a0cd 3bbc 171a 323e 8169 3c3e 0b48 4abe
000003b0: f8ec ed3d e196 fdbd 4907 b5bd a291 b43d
000003c0: e88d 113d 31d0 4d3e 5b53 c1bd 388b f7bb
000003d0: 753a 023e c103 5ebe 8b0e 343e 4f61 30be
000003e0: 9b6b a13b 0c9a 73bc e80e e5bd a53e 06bd
000003f0: 7be6 743e d041 33bd 3771 32be ed1c bfbd
-0.035072725 0.14833602 -0.1733437 -0.1899522 -0.04246419 0.1158329 -0.010489158 0.18368821
-0.05046169 0.051466614 -0.09932035 -0.036897298 -0.22397862 -0.1694398 -0.08849674 0.033517946
0.14892074 0.15153308 -0.18842399 -0.1369359 0.08737081 0.2207651 -0.031324405 0.18549092
-0.033093467 -0.0073173116 0.20787996 -0.20796476 -0.18859969 -0.07021456 -0.14070265 0.19522326
-0.1441809 -0.16870107 -0.15707473 -0.25505257 -0.16746318 0.20221207 0.09331689 0.10381062
0.094163276 -0.103864 0.039876867 -0.23182762 -0.17345282 -0.10269948 0.19200729 0.14822984
-0.07803917 -0.0061389445 0.16774668 0.24444827 0.09719917 0.048713326 0.17168328 -0.14523548
0.009868423 -0.20859067 -0.1553849 -0.12728792 0.12993729 0.093233116 -0.1320405 0.042310026
0.11642861 -0.030647198 0.011886613 0.022789551 0.18210423 0.23124081 -0.23856764 -0.0600787
0.0854735 0.18846697 0.17660908 0.24276526 0.018450014 -0.16483174 -0.004661127 -0.11904233
-0.30514476 0.17577085 0.18858667 -0.22705647 0.022888921 0.014458838 -0.02887255 -0.12947275
0.1457055 -0.1563576 0.061992973 0.12298702 0.21675557 0.10386293 -0.1949278 -0.14386033
0.14606573 0.094795465 -0.17567012 -0.1668692 0.20524238 0.22375657 -0.099452324 -0.051738724
-0.21135744 0.018839026 -0.18558265 -0.21389626 -0.05795098 0.0794928 -0.1329915 0.11443649
-0.17723322 0.2315549 0.14700885 -0.18318051 -0.0728968 -0.036647208 0.053064264 0.077269904
0.11359423 -0.025703525 -0.08858872 0.1015266 -0.2691585 -0.17063634 -0.04173279 -0.12043457
-0.06318284 -0.19259657 -0.07162514 0.09340948 -0.18240657 -0.01747569 0.14866775 -0.053713843
0.010322096 -0.06510577 0.043519422 0.14109553 0.1994239 0.14184192 0.2108712 -0.009205148
-0.1748717 -0.14461842 0.16592404 0.01139856 -0.15608098 -0.24639617 -0.17273735 -0.17658333
-0.08566793 0.14603133 0.10854182 -0.24351493 0.14113803 -0.24336824 -0.06417881 -0.09686
-0.024418091 -0.06394205 -0.22837076 -0.22119905 -0.047997043 -0.081316695 -0.11790597 0.06172728
-0.19035964 -0.035673458 0.23604015 -0.10466178 0.16896492 0.109132975 -0.22819054 0.14918002
0.0022972166 -0.105886795 0.20478825 -0.23415405 0.05120245 -0.09573794 0.22737613 0.10549409
0.078694396 0.044263963 -0.03443524 -0.020124998 -0.22973633 0.13920666 0.2195576 0.17132078
-0.14786029 0.06227726 -0.20669667 -0.113383204 -0.10699014 0.10408857 -0.15267725 0.0643425
-0.0110585 0.14180432 -0.22645323 -0.11933517 -0.168033 0.19817719 -0.10946513 0.22651368
0.09745151 0.0576724 -0.01655597 -0.018455572 0.0020195318 -0.04348653 -0.027593875 0.04336304
-0.18039308 -0.10662339 0.2041416 -0.16392194 0.0027244575 0.20072556 0.053307805 -0.012674726
-0.2568313 0.1308686 -0.16832085 -0.036028273 -0.118318774 -0.010700063 -0.04126243 0.22649725
-0.011462599 0.17392765 0.18399622 -0.19754045 0.11617464 -0.123822935 -0.0883928 0.0881684
0.035535723 0.2009895 -0.09439727 -0.007554438 0.12717612 -0.2168112 0.17583673 -0.1722462
0.0049261576 -0.014868271 -0.11184484 -0.032774586 0.23916046 -0.043763936 -0.17426 -0.09331689

weight f4 [200]
00000000: bb95 823f 1b64 813f 4c0c 7c3f e1c8 813f
00000010: 9be6 7a3f 87cd 793f 76c7 763f 3663 7b3f
00000020: dad5 813f 8408 7c3f 05db 703f 201f 753f
00000030: a127 773f f350 853f 848d 803f e8f1 803f
00000040: 7499 823f c358 7d3f a0ba 793f 5e52 793f
00000050: b728 7c3f 63b4 833f 732c 7c3f 05ff 843f
00000060: 6294 7a3f 28d9 833f 1df0 783f 2533 843f
00000070: fcb3 7e3f f9d6 7b3f 2dc5 813f 230e 813f
00000080: d5e4 7c3f 288a 803f f82a 853f 7fc6 793f
00000090: 9d06 703f e713 7e3f 251a 7e3f 621b 7e3f
000000a0: e53b 7e3f 5c70 7d3f 2b9f 813f 6400 7e3f
000000b0: 6c3d 803f 1adf 853f 49a3 7b3f 85aa 783f
000000c0: 2603 813f 276d 803f 6213 803f a876 7b3f
000000d0: 163e 833f 4b83 823f ba58 823f 0eb7 7e3f
000000e0: fd21 813f f1b0 7a3f aa0d 853f 6523 7b3f
000000f0: 24c5 7e3f f0e7 803f f3a1 7a3f ccba 7e3f
00000100: 8076 7e3f 4db0 813f 4979 853f 83e2 893f
00000110: f5bf 843f 878e 763f ca4c 7c3f ad5a 7f3f
00000120: 7087 833f d270 7a3f f2f1 7b3f 9109 7d3f
00000130: 9b54 7e3f 81f6 7a3f db69 7f3f 40e8 823f
00000140: 163c 833f e95d 823f fa1d 833f 0054 803f
00000150: 7406 833f e954 833f e092 813f 5888 7c3f
00000160: 715b 783f 3191 813f 69e0 7c3f b723 843f
00000170: 6545 793f 5845 853f 15ca 7f3f 21a4 843f
00000180: 5f56 803f ac71 813f a258 893f 2045 853f
00000190: d283 783f 2676 843f bbf8 843f fce0 783f
000001a0: 320f 853f bca6 773f 6ec9 813f de49 7e3f
000001b0: 4836 7a3f 8f77 843f 45a5 803f 1a31 773f
000001c0: 75ca 7b3f a7b7 803f cf31 7d3f d8e5 7f3f
000001d0: d754 863f 43d8 823f bd8a 7c3f c26f 813f
000001e0: c50d 7d3f 866d 7a3f c8f2 813f ca1b 7c3f
000001f0: 0f0d 833f 3692 843f 0e4d 853f 8a06 813f
00000200: ded6 7d3f 3078 813f a22c 7c3f 8984 813f
00000210: cc77 843f 0a16 813f ce99 803f df86 803f
00000220: 92a2 843f 03db 7d3f f18e 733f 4018 7f3f
00000230: 7b42 7b3f ec5c 833f 55a4 773f 8197 833f
00000240: def7 813f fc92 803f 004e 723f e3da 833f
00000250: d0a7 7c3f 7957 823f 90d6 813f 6028 823f
00000260: ffde 793f b700 823f cd94 793f 83a1 823f
00000270: 7239 823f 2d05 803f 8ade 7f3f 9b1d 803f
00000280: e6c9 833f ecb8 833f 8f50 7b3f a12d 7f3f
00000290: d7f9 763f 5b3a 7f3f 27bb 813f f8b7 863f
000002a0: 1202 823f 3bd7 763f d8b8 7d3f b021 773f
000002b0: b508 713f c396 7e3f c50c 7f3f 30c3 7b3f
000002c0: ec10 813f 5fa0 833f 69e0 7a3f 388b 7a3f
000002d0: 1b45 813f d1fd 833f 229e 823f 6c41 813f
000002e0: 2fb8 773f 4c90 803f 6492 743f 899b 833f
000002f0: 5624 773f 4270 803f c729 7a3f 6520 843f
00000300: 183e 803f a80f 843f 48e5 7c3f f8bd 843f
00000310: 4784 7d3f 19ee 7b3f c140 7d3f 8f2d 7a3f
1.0201944 1.0108675 0.98456264 1.0139428 0.98008126 0.97579235 0.96398103 0.9819826
1.0143387 0.98450494 0.940842 0.9575062 0.96544844 1.0415329 1.0043187 1.0073824
1.020308 0.98963565 0.9755039 0.9739131 0.98499626 1.0289425 0.98505324 1.0390326
0.97882664 1.0300646 0.97241384 1.0328108 0.99493384 0.983749 1.0138298 1.0082439
0.9878667 1.0042162 1.0403738 0.97568506 0.9376009 0.9924912 0.99258643 0.9926053
0.9931014 0.9899957 1.0126699 0.99219346 1.0018744 1.045871 0.9829603 0.9713519
1.0079086 1.0033311 1.0005915 0.9822793 1.0253322 1.0196317 1.0183327 0.9949807
1.0088497 0.9792624 1.0394795 0.9810088 0.9951956 1.0070782 0.97903365 0.9950378
0.99399567 1.0131928 1.0427638 1.0772251 1.0371081 0.9631123 0.9855467 0.99747735
1.0275707 0.978284 0.98416054 0.9884272 0.9934785 0.98032385 0.997709 1.0227127
1.0252712 1.0184909 1.0243523 1.0025635 1.0236344 1.0260288 1.0122948 0.98645544
0.9701453 1.0122434 0.9877992 1.0323399 0.9737151 1.0411787 0.9991773 1.0362588
1.0026358 1.0112815 1.0730174 1.041172 0.9707614 1.0348556 1.0388407 0.972183
1.0395262 0.9673879 1.0139596 0.9933146 0.97739077 1.0348986 1.0050436 0.965593
0.983558 1.0056046 0.98904127 0.9996009 1.0494641 1.0222248 0.986492 1.0112231
0.98849136 0.9782337 1.0152216 0.984799 1.023836 1.035712 1.041414 1.008012
0.99155986 1.0114803 0.98505604 1.0118572 1.0349059 1.0084851 1.0046937 1.0041159
1.0362113 0.9916231 0.95139986 0.9964638 0.98148316 1.0262733 0.96735126 1.028061
1.0153768 1.0044856 0.9465027 1.0301174 0.9869356 1.0182945 1.0143604 1.0168571
0.9760589 1.0156468 0.97492677 1.020554 1.0173781 1.000158 0.9994894 1.0009035
1.029599 1.0290809 0.981698 0.99679 0.96474975 0.9969842 1.0135239 1.0524893
1.0156882 0.96422166 0.99110174 0.9653578 0.9415391 0.99448794 0.9962886 0.9834471
1.0083289 1.0283316 0.9799867 0.9786868 1.0099214 1.0311834 1.0204508 1.009809
0.96765417 1.0044036 0.95535874 1.028184 0.9653982 1.0034258 0.9772 1.0322386
1.001895 1.0317278 0.98787355 1.0370474 0.99029964 0.98410183 0.9892693 0.97725767

bias f4 [200]
00000000: adb1 bc3b 03a9 d7bc 4b18 89bd 9a0b 63bb
00000010: 6751 c33c 6905 c43a dffb 453d 0c15 0e3d
00000020: e658 113c 63b3 123c bc49 66bd 22ac 183b
00000030: c126 4cbc a0ef 34bd c8dc 17bd f7b8 3cbc
00000040: c569 2fbd b9ab 193d afc8 f63c 3aea e3bc
00000050: 5a28 3abc 6f11 c33c 80c1 d93c 7735 babb
00000060: 31ff 38bd ce82 6c3c 6393 36bb 1a5a 353c
00000070: e6de 063d 563b babc f56c 6f3d aec1 18bd
00000080: 3231 a0bc b984 113d 8505 87bc f9d8 533d
00000090: 7499 aa3c 2d00 58bd 82b6 97bc d7bd 79bc
000000a0: 0426 bbbd 5674 febc f2be 11bc 0fb8 bcbc
000000b0: dfa2 9fbd bd6d 0a3d 1c02 213d ae25 413d
000000c0: d44b 05bd a6a5 edbb 4aa4 19bc 7597 28bb
000000d0: 57fe 93bc 114c 63bc 6e5c 9ebd 8511 dcbc
000000e0: 6a1d 323d fad0 60bd 6cfc 203d e60c 183d
000000f0: 3ff5 5bbc 5dd2 0bbc ab3b fdbb 08cb 0b3c
00000100: 5e7a 07bc 27f7 dbbc c818 c13c 54ff 02bd
00000110: 7684 20bd d422 4cbb 51e1 503c 4461 2ebd
00000120: 26cf 023b 4384 a23c 06e9 e83c 8f71 0b3d
00000130: 5c05 803c ba0d 563d 1665 1ab9 6d46 6bbd
00000140: 2091 83bc d801 2d3c 048d 023c 3e7b 74bc
00000150: 07a3 ea3c a702 793d 020d d63b 7dfd cc3d
00000160: 135a 983c 06fe bbbc 9042 0ebd 9395 19ba
00000170: 0bf0 6a3c f5e0 243d 1ec8 aebc 4a57 963c
00000180: 815d 2e3d 71a4 fd3c 5070 23bd 4f1a 713c
00000190: ecb6 c6bc f94c 503a 3801 a33c fde5 043d
000001a0: 8731 033d e061 b4bc ff90 c2bc 8dbb 793a
000001b0: 1078 ea3c e49b d3bc 7907 113d c093 5e3c
000001c0: 8164 2f3c 5824 e5bc 9082 073c 549a e2bc
000001d0: 3591 1dbd 3d00 b5bc a236 1fbc 7f3c 3abc
000001e0: c50d 763d a3da e83c 3ed8 0d3d 3e09 edbc
000001f0: 05e3 ecbc aa91 e5bc 1984 1f3c e994 d5bb
00000200: 70b2 693c 9b24 6c3d 548c 483d 7321 1d3d
00000210: 5f26 25bd f390 393d 5e3d 503d 6571 20bd
00000220: 1968 c63c 5a9e 933c 2bf6 6d3c 8bb6 a73c
00000230: 0b3b e23b 9c8c 923c e980 bd3c e93c 6b3d
00000240: c922 3abc 2e3d fd3c 64e4 1a3b 2cba 083d
00000250: 5e92 283c 4141 29bd e3d5 333c f018 573d
00000260: c4f5 dbbc 77d4 863d b2f2 0dbd 10c3 f8bc
00000270: b8a4 433c 93e9 243c a4a1 a2bc 5884 a2bc
00000280: 7655 d83c 3529 12bd 2966 433b a725 353b
00000290: e394 31bd e115 da3c d071 06bd 917c 993c
000002a0: 94b4 53bc a1ea 2e3d 3ae1 d73c 4365 813b
000002b0: b07e 22bd e75a d73c d7a2 32bd e649 b4bc
000002c0: a879 06bc cfb0 693c 826c 28bc 3e81 883c
000002d0: e33e fcbb ac14 f13c 68fe 143a db94 0d3d
000002e0: 08db 6ebb 0aff 143d 25e6 333d f67c 373d
000002f0: 4256 5ebb 633c 3dbb 3346 1d3d 8f8f aa3c
00000300: d168 b5bc 299e c23b b947 d5bc 4b5c 343c
00000310: 5f3b 94bc ab85 2ebc 26e4 363d ac1c 1cb9
0.0057584853 -0.026325708 -0.06694087 -0.0034644366 0.023842527 0.0014955226 0.048335906 0.03468804
0.008871293 0.008953902 -0.056222662 0.0023295959 -0.0124604115 -0.044173837 -0.037075788 -0.011518708
-0.04282548 0.037517283 0.03012499 -0.027821649 -0.01136216 0.023812024 0.026581526 -0.005682643
-0.045165244 0.014435483 -0.0027858845 0.011068845 0.032927416 -0.022733372 0.05845352 -0.037294082
-0.019554708 0.035526965 -0.016482124 0.051720593 0.020825125 -0.052734543 -0.018519644 -0.015243015
-0.0913811 -0.031061333 -0.008895623 -0.023036985 -0.07794737 0.03379606 0.039308652 0.047155075
-0.03254302 -0.007252413 -0.0093775485 -0.002572504 -0.018065615 -0.013873116 -0.07732473 -0.026863823
0.043485083 -0.054886796 0.03930323 0.037121676 -0.01342517 -0.008534041 -0.0077280602 0.008532293
-0.008268921 -0.02685125 0.023571387 -0.03198178 -0.039188825 -0.003114869 0.012749032 -0.04257323
0.0019959896 0.019838458 0.028431427 0.034043845 0.015627556 0.052259184 -0.00014724242 -0.05744021
-0.016060412 0.010559522 0.007968191 -0.014921961 0.02864219 0.060793545 0.0065323124 0.100092866
0.018597638 -0.022948276 -0.034731448 -0.0005858775 0.014339457 0.0402536 -0.021335658 0.01835217
0.04256964 0.0309622 -0.03990203 0.014715745 -0.024257146 0.000794604 0.019898042 0.032445896
0.032029655 -0.022019327 -0.02375078 0.00095265434 0.028621703 -0.02583117 0.035407517 0.013585031
0.010705114 -0.027971432 0.008270875 -0.02766148 -0.03846856 -0.02209484 -0.009717615 -0.011366962
0.060071725 0.028424567 0.034630053 -0.028935071 -0.028916845 -0.02802356 0.009736084 -0.0065179956
0.014263734 0.057652097 0.048961952 0.038361978 -0.040319797 0.04530425 0.050839774 -0.03917064
0.02421956 0.018019844 0.014524023 0.020472785 0.006904011 0.017889313 0.023132758 0.057431135
-0.0113608325 0.030912962 0.0023634667 0.033380672 0.010288803 -0.041321997 0.010976288 0.052514017
-0.026850589 0.06583493 -0.03465528 -0.03036645 0.0119411275 0.010065454 -0.019852467 -0.019838497
0.026407938 -0.03568383 0.002981553 0.002764085 -0.04335488 0.02662176 -0.032823384 0.018736156
-0.012921471 0.04270423 0.026352514 0.003948839 -0.0396716 0.026288463 -0.043612327 -0.022007894
-0.008207716 0.014263346 -0.0102797765 0.01666319 -0.0076979264 0.029428802 0.00056836614 0.034565788
-0.003644647 0.036376037 0.043920655 0.044796906 -0.0033925925 -0.0028875105 0.038397025 0.020820407
-0.022144707 0.0059392643 -0.026035177 0.0110083325 -0.018094717 -0.010651986 0.044651173 -0.00014888

running_mean f4 [200]
00000000: cc04 223e 7762 533e 8e70 793e fb0d 2b3e
00000010: b6e1 383e 96ea 3c3e f7cd a93e aa05 323e
00000020: 90da 6e3e cbdb 893e dbad 863e a2ee 613e
00000030: eb72 0c3e 6ad5 243e 1389 2c3e 9262 1d3e
00000040: f51e 443e d693 653e a7ec 183e fa0f 8e3e
00000050: 67a9 6d3e 2f09 573e b1b8 623e 5119 883e
00000060: 74f1 f63d eb47 673e 3297 563e 38a2 393e
00000070: 0f5c 803e f6c9 573e e295 143e 0740 2f3e
00000080: 184d 653e 4a35 443e b1d3 153e 8ed7 3d3e
00000090: 23dd 813e f013 223e 16e1 4c3e e112 953e
000000a0: 6e4b 9c3e eeea 5d3e e0da 8f3e 6841 4e3e
000000b0: 7e75 1a3e 1ff6 8e3e 237d 6e3e 8150 4d3e
000000c0: 8ec4 1c3e 8a8a 053e 3083 003e 81fc 473e
000000d0: 2819 153e 2c8b b43e 0ec0 b63e 3676 7d3e
000000e0: ddd3 183e 3666 463e 150a 113e 82d3 4e3e
000000f0: 4bb2 8c3e b159 4e3e d673 5b3e 69d2 db3e
00000100: a466 583e eb94 843e 8713 5e3e dd47 b93e
00000110: 1343 713e df0e ae3e f535 5e3e 056c 063e
00000120: 0a51 543e 30cf c13e 8823 803e 94b3 263e
00000130: e6d4 423e d2e3 253e 01ac 133e 211f a33e
00000140: 8738 063e fb28 9a3e e846 2f3e 7381 503e
00000150: d6ac 4a3e 0686 e03d de91 8b3e 4a43 643e
00000160: 672f 363e 8df7 353e 696b 643e fe0e a53e
00000170: fe10 263e 9805 3e3e 1d0b 083e e98d 463e
00000180: e5ad a23e 82dd 3d3e 84a4 4b3e b5fa 5b3e
00000190: 2ea4 2a3e c1f0 8b3e 776f 493e 6fbb 383e
000001a0: 3d12 243e f8e3 0a3e de03 a93e fe42 763e
000001b0: bc7c 623e 9cac 7d3e b80d 543e 9f08 7c3e
000001c0: 7961 093e 6dc0 743e b570 493e be30 743e
000001d0: bf04 4a3e 4a57 8d3e f73c 9a3e 396e 263e
000001e0: 3c59 193e 0056 7b3e 5061 3e3e 6655 5b3e
000001f0: 8686 fd3d b021 1c3e 13b8 5a3e fd17 e03d
00000200: 0f53 dd3d 29ee 673e 651a b73e edd7 763e
00000210: b38b 473e 45b1 463e 15b4 1b3e 1888 933e
00000220: fb18 483e 0a75 243e 852c 7b3e 8df1 5a3e
00000230: d6a6 0d3e 8583 753e 2698 0c3e 88b8 5f3e
00000240: e78f 183e 3893 483e f81f 7a3e 2470 223e
00000250: b281 8e3e e48c 603e 82a7 523e bbe3 053e
00000260: 5847 9e3e 78c8 873e 1853 103e 3c3c 353e
00000270: 92c2 403e 2082 3c3e 18d1 893e 3eb3 d53e
00000280: 6b79 6b3e 1b55 a23e 43e9 3e3e 506c a33e
00000290: 2c70 8d3e c7f4 f73d 2f6a 173e 40c2 1b3e
000002a0: 2045 803e d9d8 8a3e f126 6f3e f239 2e3e
000002b0: f77d 9e3e 78e8 0c3e 025f 383e 7c5c 863e
000002c0: 409a 223e a033 1f3e 8289 263e 5f88 5e3e
000002d0: 3165 6f3e c342 983e e693 1b3e 50a7 8d3e
000002e0: 58df ab3e 59ac a03e 0790 443e 10d4 913e
000002f0: 6542 833e a63a 543e 7637 443e 675f 8d3e
00000300: 3264 713e 05bc 3a3e 431e 943e 916a 3f3e
00000310: 59b0 9e3e 040c 863e 2c57 183e d3fb 253e
0.15822142 0.2064303 0.24359342 0.16704552 0.18054852 0.18448862 0.3316495 0.17384973
0.23325562 0.269255 0.26304516 0.22063687 0.13715713 0.16097036 0.16849165 0.15369633
0.19152434 0.22419676 0.14934026 0.27746564 0.23209153 0.20999597 0.22140767 0.26581815
0.12057772 0.22586028 0.20956114 0.18128288 0.25070235 0.21073136 0.14510301 0.17114268
0.2239269 0.19160953 0.14631535 0.18539259 0.25364026 0.15827918 0.20007738 0.29115966
0.30526298 0.2167165 0.28096676 0.20142138 0.15083882 0.2792215 0.23289923 0.20050241
0.15309355 0.1304113 0.12550044 0.19529916 0.14560378 0.3526243 0.356934 0.24752125
0.1492457 0.19374928 0.14164002 0.20197871 0.27479777 0.20151402 0.21430907 0.42933968
0.21132904 0.25894865 0.21687137 0.3618764 0.23560743 0.3399572 0.2170027 0.13127144
0.20734039 0.37853384 0.25027108 0.16279441 0.19026527 0.16200188 0.14421083 0.31859687
0.13107501 0.3010939 0.17116892 0.20361881 0.19792494 0.10963063 0.27259725 0.22291294
0.1779152 0.17770214 0.22306599 0.32238 0.1621742 0.18556821 0.1328549 0.19390072
0.31773296 0.1854153 0.19886976 0.21482356 0.16664192 0.27332118 0.19671427 0.1804025
0.16022582 0.13563526 0.33010763 0.24048993 0.22117895 0.24772877 0.20708358 0.24612664
0.13416089 0.2390153 0.196719 0.23846719 0.19728373 0.2760566 0.30124637 0.16252984
0.14975446 0.24544525 0.1859181 0.21419296 0.12379174 0.15247226 0.21359281 0.109420754
0.10806858 0.22649445 0.35762325 0.24105807 0.19486885 0.1940356 0.15205415 0.2881477
0.1954078 0.16060272 0.24528702 0.21381207 0.13833174 0.23975952 0.13729915 0.21847737
0.14898644 0.1958741 0.24426258 0.15863091 0.27833325 0.21928746 0.20571712 0.13075154
0.30913806 0.26520133 0.14094198 0.17698759 0.18824223 0.18409014 0.26917338 0.41738313
0.22995536 0.31705555 0.1864367 0.31918573 0.27624643 0.121072344 0.147866 0.15210819
0.25052738 0.27118567 0.23354699 0.17014292 0.3095548 0.13760555 0.18004993 0.26242435
0.15879154 0.15547037 0.16263393 0.21731709 0.23378445 0.29738435 0.15193138 0.27666712
0.33568835 0.3138149 0.19195567 0.28482103 0.25636593 0.20725498 0.19161782 0.2761185
0.23573378 0.18235786 0.28929338 0.18692996 0.30993918 0.26181042 0.14877003 0.16209345

running_var f4 [200]
00000000: d085 a43d 9188 963d 1753 133e 0956 dd3d
00000010: 31cb 9f3d 199e ac3d cd8f d13e 27e6 e03d
00000020: 4700 e03d 6163 243e 5ee2 d33d 5ff0 983d
00000030: 3b93 033e 9ece 4f3d 3349 713d 964f 1f3d
00000040: 57d6 1e3e a18a 173e d12f 833d 46b2 5e3e
00000050: 9cc8 613e 607e 8d3d 550e 153e b5a0 263e
00000060: 0f3f 6f3d faea e33d 05da fd3d 974e 923d
00000070: dc3f c13e aa32 843d 65ca 883d bbf9 f13d
00000080: c467 b23d 6673 b73d 5bc4 913d a920 a63d
00000090: 731e ce3d fd78 983d a405 483e ad0c 163e
000000a0: 16fe 353e af2f 953d e95f 3e3e 4439 ee3d
000000b0: e0d6 863d 5ba9 483e 442b ca3d 4dcd 163e
000000c0: d428 953d d922 4e3d 795d 883d 3ad5 9c3d
000000d0: d78f 8d3d ad0a ff3e b0ec 423e ff52 e33d
000000e0: b43b 413d 5d2d c73d b773 063d 0e74 1a3e
000000f0: 0908 2e3e c9d9 b33d e76e 1f3e 8e83 573f
00000100: 9769 ea3d d7bd 113e 1cf7 0b3e b0a6 c33e
00000110: 7b85 053e 91c2 bf3e 2390 cb3d 634f 283d
00000120: 838f a13d fa44 c63e e292 283e db87 163e
00000130: 0b19 a13d 42c3 d53d 0911 1f3d 96b2 353e
00000140: daf4 863d 8658 553e bfb5 773d f585 ec3d
00000150: 87e0 d63d 9dc1 f53c fb2f ec3d ab35 6c3e
00000160: 6b43 c43d d84c c83d 6629 cd3d e0fc 203e
00000170: 2534 543d 8b9e 833d 41bb 403d 02d5 ab3d
00000180: 7bf0 3b3e 8ee2 ff3d b017 bf3d 2e6a 043e
00000190: 68b1 933d d9a8 833e cb80 9d3d 3a9a b23d
000001a0: a298 793d f033 373d 0231 023f 5e0a b43d
000001b0: 11bc 053e 2051 dd3d 5001 7b3d d7eb 3f3e
000001c0: 013f 5c3d adc7 293e a860 8a3d d4d9 e73d
000001d0: 90c0 db3d 2140 263e fccc cf3e f76c 783d
000001e0: 82dd 863d 97ee a93d 63dc 993d 5092 c83d
000001f0: 2cdc 3a3d 4edc 8b3d 63e2 9e3d 9c19 063d
00000200: 4fb8 143d 5cf8 d43d 5dd9 7a3e e25b 8c3e
00000210: 1fee 543e a504 a93e a2d3 c03d 7434 833e
00000220: 0cb9 e23d 7acc 9d3d 660f 043e 23b8 cb3d
00000230: 6cfd 813d a403 c63d f608 343d 6668 063e
00000240: d548 743d 33ca b83d f2a9 2d3e 99a2 413d
00000250: 830a d83d fddc 533e addb f03d 7197 3e3d
00000260: 7b37 8d3e b354 103e 6a2f 3e3d 72ca aa3d
00000270: 01ec 913d 117e 953d c2cc 193e 2774 5b3e
00000280: 7647 123e 3728 1d3f cd20 123e c984 373e
00000290: b288 503e 6e93 053d c8ce c13d 8ece 4f3d
000002a0: ce24 ca3d 197f 133e d4ef c73d 19e2 903d
000002b0: 7862 463e 1dd5 273d 35b2 9b3d bc47 423e
000002c0: 6e34 943d d6e9 313d 7802 613d bea6 363e
000002d0: 6165 e73d 8111 533e 5db3 7f3d be39 463e
000002e0: 5680 973e f971 a83e 0b4b 003e 21f4 6e3e
000002f0: 9c18 703e 78e3 de3d 1e8e 773d 0092 493e
00000300: d2f1 2b3e 7da1 bb3d fc8a ed3e a1f1 d13d
00000310: 4901 db3d df63 d53d a675 a83d 18b1 8a3d
0.08033335 0.07350267 0.14387165 0.108074255 0.078024276 0.08428592 0.40930024 0.10981398
0.10937553 0.16053535 0.103459105 0.07467722 0.12849133 0.050734155 0.0589077 0.03889426
0.15511452 0.14798976 0.06405605 0.21747693 0.22049183 0.0690887 0.14556248 0.16272242
0.058409747 0.111288026 0.123950996 0.07143896 0.37744033 0.06454976 0.06679229 0.118152104
0.08711198 0.089575574 0.0711753 0.08111698 0.100644015 0.07444952 0.19533402 0.14653273
0.17772707 0.072844855 0.18591274 0.11632016 0.06583953 0.19595854 0.098715335 0.14726754
0.07283178 0.050326202 0.066584535 0.07657857 0.06912201 0.49812832 0.19035602 0.110998146
0.047176078 0.09725449 0.032825198 0.15083334 0.16995253 0.087817736 0.1556965 0.8418511
0.11445921 0.14232574 0.13668483 0.3821311 0.130392 0.3745313 0.09939601 0.041091334
0.07888701 0.387245 0.16462281 0.14700262 0.07866105 0.10437633 0.038834605 0.17743906
0.065896705 0.2083455 0.06047606 0.11548988 0.10492044 0.029999549 0.11532589 0.23067348
0.095831715 0.09780282 0.10017662 0.15721464 0.05180754 0.06426724 0.04705358 0.083902374
0.18353455 0.12494384 0.0933069 0.1293113 0.07211572 0.25714758 0.07690581 0.08720823
0.060936578 0.044727266 0.5085603 0.0879104 0.13060023 0.10806489 0.06128055 0.1874231
0.053771023 0.16580077 0.06756717 0.11320844 0.10730088 0.162354 0.40586078 0.060650792
0.06585218 0.082974605 0.075127386 0.09793532 0.04562013 0.06829129 0.077580236 0.032739267
0.036308583 0.10398933 0.2449698 0.2741385 0.20793961 0.33011356 0.09415366 0.25625956
0.11070451 0.077050164 0.12896499 0.09947231 0.063471645 0.09668663 0.04395386 0.13125762
0.05963977 0.090229414 0.1695936 0.047274206 0.1054888 0.20689769 0.1176065 0.046531145
0.2758139 0.1409481 0.046431936 0.08339395 0.07125092 0.07299436 0.15019515 0.21431027
0.14285073 0.6138949 0.14270325 0.17921747 0.20364645 0.032611303 0.094632685 0.050734095
0.09870301 0.14403953 0.097625405 0.07074375 0.193735 0.040974725 0.0760235 0.18972677
0.07236563 0.043435894 0.054933995 0.17837045 0.11298633 0.20612146 0.062426914 0.19357964
0.295901 0.32899454 0.12528627 0.23335315 0.23446888 0.1088323 0.060438268 0.19684601
0.16791466 0.09161661 0.463951 0.10251165 0.106936045 0.104194395 0.08225565 0.06772059

weight f4 [100, 200]
00000000: b0a5 bc3c 2448 cabd adc9 9cbb 1d30 68bd
00000010: 880b bcba 5bfd 163d 31b6 77bb a9d2 fd3c
00000020: 8535 c0bc 58fc acbb 3b0f 663d 36f8 2e3c
00000030: 775b 0dbd e9bd f13d cd1a 87bd 8dd2 893c
00000040: deba 743d ece2 97bd c2ef a5bd f6b7 483c
00000050: 0c8b e2bc a44c 6abd a0e6 b4ba c893 60bd
00000060: 3f15 623d 83c7 83bc 76af 35bb 2f0c 773d
00000070: f50c 8d3c 5f06 71bc dc96 7cbd c77a 2e3d
00000080: ff04 44bd e308 d03c 738b 53bb 2d6c f1bb
00000090: b67c c33c c483 89bd 7807 6fbd 0f4c bbbd
000000a0: 09cf f03c 09f0 2b3d f7cb 1ebd f928 2fbd
000000b0: 9f2a d83c 6579 f43a 7e99 b43b 093e 893c
000000c0: 6320 48bd a93f 313d 3a79 93bd d950 97bd
000000d0: c53b 15bc d91e 9cbc 0fda e63a 57c5 c93c
000000e0: b513 8fbd 219f 183c fb48 85bd cb3a 70bd
000000f0: 75ce 2fbd de90 473c b6fb e6bc 60ed 78bd
00000100: 9d0d 49bd 20a4 35bd 521f 40bd 9848 97bd
00000110: 5e7a 443b cc93 89bb e29e 84bd c33c b13c
00000120: 3692 2bbd ca6b 0bbd c503 16bd 1de6 49bd
00000130: d246 98bc 5b11 abbd af8b 083d 5919 a73d
00000140: 420c d83d c952 43bd 2071 08bc 63aa c5bd
00000150: 4cbc 2c3d c1f8 b4bd 91e7 b8bd 624b e7bd
00000160: 756b b7bd e43e 083a 8da6 27bc 2a05 a9bb
00000170: ed48 f6bc da28 c0bc 2e44 33bb e8fc 80bd
00000180: 6db0 09bd 69f9 8cbb e11d 4cbd e11c 85bd
00000190: 91f0 783c 6a93 e8bc 3005 4ebd 69e9 31bc
000001a0: e941 ebbd 542d 6bbb ed43 16bd 0378 893c
000001b0: 4555 eebc 6294 9fba 69b1 8fbd ea3d 2cbc
000001c0: d0c1 09bd 3e1e 10bd 608e debc 1029 e5bc
000001d0: b66f b8bd 4d2b cdb9 c41c 0f3d c525 6a3c
000001e0: e4b2 913d 4c1e f43c ea51 9fbd b436 24bd
000001f0: 8e8f 2bbc 1a95 3fba 76e7 00bd 06b8 c33d
00000200: db81 a53b 39d3 8dbd 4998 81bc a1dd b7bd
00000210: 6194 e0bb 6451 febc bdb2 0bbd 6196 a1bd
00000220: e837 a4bd 8e3c 99bb 03d6 87bd 16e7 81bd
00000230: a0e0 94bd cb95 403d 1dcf 54bd 0d5a 34bd
00000240: 30d3 babd 0d34 9c3b dd13 1bbd 7697 55bb
00000250: 6d35 933c ab59 b03c 5693 db3c 75f4 87bc
00000260: 6246 cfbb 3d90 1abc 6a37 26bd c7cd 89bc
00000270: 504d 383d 9784 99bd 70fb 48bd e21d 98bd
00000280: 5abb 02bd 8d5b 9abd c763 72bd 7acf a63d
00000290: 700a 8e3c cc33 a53c c2e4 b0bc ffa4 c9bd
000002a0: 91bc 65bd dd22 9ebd bedf 34bd 2add d43c
000002b0: 11d8 d8bc b562 2c3d 0455 2ebd c766 7fbd
000002c0: 898e 6e3d 7dbc e4bc f3d3 5c3d ad86 733a
000002d0: f314 9fbd 5f47 4b3d 31b9 f2bc 8943 7fbb
000002e0: f3cf 44bd 3ce4 a6bd 78ef 6ebd 1fa0 a1bd
000002f0: 9b37 073c 93c9 02bd cc31 5a3a c650 16bd
00000300: 3d00 3e3d 3013 2cbd 2565 663c 08a5 12bc
00000310: 7efb 53bd c887 90bc 5c46 57bd a60f 69bd
00000320: 231f acbd 6a8a debb dd8b 69bd 5b89 923d
00000330: a2c2 023d 9e5d 5ebc f382 613d 7d47 9a3c
00000340: 7934 c1bd 91f2 d9bc 3e0d 893b 52e1 8fbc
00000350: e112 1c3c dc5c 333c e8cd 8abc 0f36 59bc
00000360: 760f a5bd 4709 6e3d 7723 7d3d 6ae9 b13d
00000370: b1b2 acbc 2707 c53b 66eb de3b 8551 66bd
00000380: 9ac6 fa3c ec4a acbd 66cf 8bbb 1e07 1dbd
00000390: 967c 80bd 70aa 6cbc ca4c 5abc 9017 78bc
000003a0: 3773 643d 5914 ac3c 9c9f 18bd 362f 6ebd
000003b0: c184 ccbc 6516 fdbc b141 8abd 7a69 1cbd
000003c0: 7fd4 eabc 3ab2 11bd 973b a5bc a601 7c3d
000003d0: 9b63 5e3d e87f adbd 62dd 223c 5c3f e1bc
000003e0: f67e d53c ceaa b63d 1a9b ff3c da41 bcbd
000003f0: d026 b73d a065 8a3b 6ece 95bd 588e 1bbd
0.023028225 -0.09877041 -0.004784784 -0.05668651 -0.0014346698 0.036862712 -0.0037797804 0.03098424
-0.02346302 -0.005279105 0.05616687 0.010679295 -0.034511056 0.118038006 -0.06596909 0.016824031
0.059748523 -0.07416329 -0.08102371 0.012250891 -0.027654193 -0.057201996 -0.0013801642 -0.054828435
0.055196043 -0.016086346 -0.002772299 0.060314354 0.017218092 -0.014710992 -0.06166731 0.04259756
-0.047856327 0.025394863 -0.0032279163 -0.007367632 0.023863178 -0.067145854 -0.058356732 -0.091453664
0.029395597 0.041976962 -0.038768735 -0.042763684 0.02638751 0.0018651901 0.0055114618 0.016753213
-0.04885901 0.0432736 -0.072008565 -0.07388467 -0.009108488 -0.019057678 0.0017612594 0.024630232
-0.06986181 0.009315283 -0.065080605 -0.05864982 -0.042921502 0.012180535 -0.028196197 -0.060773253
-0.04908525 -0.044345975 -0.04690487 -0.07386893 0.0029980163 -0.004198527 -0.06475617 0.021635419
-0.041887484 -0.034038343 -0.03662469 -0.04929172 -0.018588457 -0.0835292 0.033336338 0.081591316
0.10549213 -0.047686372 -0.008327752 -0.09651639 0.04217176 -0.088365085 -0.09028543 -0.11293675
-0.08956043 0.000519736 -0.01023258 -0.0051580863 -0.03006407 -0.02345698 -0.002735387 -0.06298238
-0.03361552 -0.004302193 -0.049833182 -0.06499649 0.015194074 -0.028390605 -0.050297916 -0.010858872
-0.11487181 -0.0035885172 -0.036685873 0.016780859 -0.029093394 -0.0012174959 -0.0701626 -0.010512808
-0.0336321 -0.03518509 -0.027167499 -0.027973682 -0.09005682 -0.0003913291 0.034939542 0.0142912315
0.07114199 0.029799603 -0.07779296 -0.04009123 -0.010471238 -0.00073082896 -0.03147074 0.09556584
0.0050508804 -0.06925053 -0.015819686 -0.08977819 -0.0068536256 -0.03104467 -0.034106005 -0.078900106
-0.08018476 -0.004676408 -0.06632616 -0.06342904 -0.07269406 0.047017854 -0.05195533 -0.04403119
-0.09122312 0.004766947 -0.03786074 -0.0032591498 0.017969811 0.021527132 0.026803654 -0.016596058
-0.006325529 -0.009433803 -0.04058019 -0.016821755 0.044995606 -0.07495993 -0.049067914 -0.07427575
-0.031916954 -0.07536993 -0.059177186 0.08145042 0.017338961 0.0201663 -0.021593455 -0.09845924
-0.056088034 -0.077214934 -0.04415869 0.025984365 -0.026470216 0.04208632 -0.042561546 -0.062353875
0.0582414 -0.02792191 0.053913068 0.00092897826 -0.077676676 0.04962861 -0.029629322 -0.0038950166
-0.04804988 -0.08149001 -0.058333844 -0.07891869 0.0082530035 -0.031930517 0.00083234604 -0.036698125
0.046386946 -0.042010486 0.014062201 -0.008950479 -0.051753514 -0.01764287 -0.052557334 -0.05689969
-0.08404376 -0.0067914026 -0.05701815 0.07155105 0.031923898 -0.013572125 0.055056524 0.018832916
-0.094338365 -0.026604922 0.004182487 -0.017563496 0.009525985 0.010947432 -0.016943887 -0.0132575175
-0.080595896 0.058114316 0.0618014 0.08687098 -0.0210813 0.0060128155 0.006802964 -0.056230087
0.030612279 -0.08412728 -0.004266667 -0.038336866 -0.06273763 -0.014444932 -0.013323972 -0.0151423365
0.05577394 0.021005796 -0.03726159 -0.058150493 -0.024965646 -0.030894468 -0.06750811 -0.038186528
-0.02866578 -0.03557036 -0.020170016 0.06152501 0.05429421 -0.08471662 0.009940477 -0.027496032
0.026061516 0.08919297 0.031201888 -0.09192248 0.0894295 0.0042235404 -0.07314764 -0.037977546

weight f4 [100]
00000000: 8e11 7b3f 4595 763f 0d4b 753f 6636 763f
00000010: 8528 753f 8b4e 793f c278 6c3f c6b8 7a3f
00000020: 51f0 773f 138c 763f 3c6c 743f ee42 773f
00000030: 81c6 783f 1b73 763f ddbf 773f 5a46 7f3f
00000040: 24cc 753f 0b65 743f b7c5 773f f1a1 753f
00000050: f540 763f 33b2 793f c568 743f 1f8c 773f
00000060: 6914 753f c14e 783f decf 773f c89b 7d3f
00000070: 91d0 733f e89f 7d3f 5feb 7a3f 3078 783f
00000080: 59ce 773f 6d3c 793f c102 783f 674b 783f
00000090: df13 783f a243 7b3f 6da2 723f f50d 763f
000000a0: 5246 753f 3965 783f ab25 763f 2f5f 713f
000000b0: 5085 793f a36a 733f dd79 733f a74b 783f
000000c0: 6dbd 793f fb53 783f a0a1 773f 5d2b 7a3f
000000d0: c8e3 763f 71b8 7e3f ac87 7d3f 3592 753f
000000e0: 0b3d 753f 36ad 763f a23b 793f 8471 793f
000000f0: 2f80 7c3f 97a4 783f d4b2 803f 3194 773f
00000100: 4536 723f 7438 793f f7b1 723f 47ea 7d3f
00000110: e398 773f 2295 743f 3182 7e3f 0a95 6e3f
00000120: 5dce 7c3f a92f 743f f38c 7e3f 3cf9 783f
00000130: 6ee4 6e3f 8497 793f 7128 763f 2b8d 793f
00000140: cd58 743f 37bb 783f 4e08 793f c99e 703f
00000150: db91 783f 7ac6 7a3f d2cb 733f 1754 7f3f
00000160: b3bf 733f bd9f 7a3f 88da 7a3f a43a 7c3f
00000170: 841b 6f3f 561f 743f 442a 733f dc69 7e3f
00000180: 9952 723f 5b6a 703f 3fba 753f ad4d 7a3f
0.9807366 0.9632152 0.95817643 0.96176755 0.9576495 0.9738547 0.9237176 0.9793819
0.9685107 0.96307486 0.9547765 0.965865 0.9717789 0.96269387 0.96777135 0.9971672
0.9601462 0.9546668 0.96786064 0.9595023 0.96192867 0.97537535 0.95472366 0.9669818
0.9573427 0.9699517 0.96801555 0.9906583 0.9524012 0.9907212 0.980154 0.9705839
0.96799237 0.9735783 0.968792 0.96990055 0.9690532 0.98150074 0.9477909 0.96115047
0.95810425 0.97029454 0.96151227 0.94285864 0.97469044 0.9508459 0.95107824 0.96990436
0.97554666 0.97003144 0.96730995 0.9772242 0.96441317 0.99500185 0.99035144 0.9592622
0.9579627 0.9635805 0.9735662 0.97438836 0.9863309 0.97126144 1.0054574 0.967105
0.9461406 0.97351766 0.948028 0.99185604 0.9671766 0.9554006 0.99417406 0.93196166
0.98752385 0.95385224 0.9943382 0.972553 0.93317306 0.9749682 0.9615546 0.9748103
0.95448 0.9716067 0.97278297 0.93992287 0.9709756 0.979591 0.9523288 0.99737686
0.95214385 0.9789999 0.979897 0.9852698 0.9340136 0.95360315 0.9498637 0.9938028
0.94657284 0.93912286 0.95987314 0.97774774

bias f4 [100]
00000000: 0730 613c 3cbc 553c d445 643c f9c7 383c
00000010: 202f a4bc 25e2 28bc 2c17 53bd 6b6e 14bc
00000020: f8d1 e5bb b5d1 f9bb 4395 e93c 8afd 92bc
00000030: 3674 c93c f6fc 4abc 76d2 f33b c9bd a03c
00000040: 46c9 363c ed17 a03c c5c6 41bc a2f4 46bc
00000050: 4c33 983c b2ff ccbb d970 063c aa0d b33c
00000060: 7b5a 2cbc 4934 793c 640c 733c a6cd c23c
00000070: 9fff 5cbc 01fe 88bc 9ba0 10bc e2f2 8abc
00000080: 80fd 073d 540a 32bc fd63 993c 94f4 103c
00000090: 68bc fe3c 3ae7 85bc b497 143d b1e4 b7bc
000000a0: 398e 25bc a1b0 583c e233 71bc a06d 9b3c
000000b0: eb5f 84bc 1299 973c de82 583c 9406 b33c
000000c0: 3867 a7bc 8ab0 0a3c b272 5a3c e450 f8bb
000000d0: b636 09bc 4aa4 413c ddf4 2bbc 6b6b 39bc
000000e0: 3bfb 97bc 2946 a9bc e6ee 56bc 27ab 54bc
000000f0: 04b4 c83c b015 1ebc a4cf 58bc 597f bc3c
00000100: abc4 803c 5f26 84bc 498e 7e3c adc2 90bc
00000110: 9682 5f3c 9afa b43c aa9b 4dbc 5c6b 9f3c
00000120: bd11 9ebc 069c 99bc 69a7 65bc 9a67 3fbc
00000130: e67a ef3c 8523 70bc 983d 82bc 4a40 7c3c
00000140: f37b a6bc 4609 d1bc ade8 823c 3b0c 373d
00000150: 3f5d d5bb 3d17 15bc 7b68 af3c eb04 46bc
00000160: eae2 3c3d ad19 973c f684 b1bc 8f81 53bc
00000170: 23f7 903c b754 46bc db34 f9bc a8cf 13bc
00000180: 68b7 57bc 0bc5 673c 97f4 6dbc 58e8 773c
0.013744361 0.013045367 0.013932664 0.011278146 -0.020042002 -0.010307823 -0.05153577 -0.009059529
-0.0070135556 -0.007623876 0.028513556 -0.017943162 0.024591547 -0.012389412 0.0074408604 0.019621747
0.011156386 0.019542659 -0.0118271755 -0.012143286 0.018579148 -0.006256067 0.008205616 0.021857101
-0.010519619 0.01521022 0.014834497 0.023779701 -0.013488679 -0.016722681 -0.008827354 -0.016961519
0.03320074 -0.01086672 0.018724436 0.0088473745 0.031095698 -0.016345609 0.036277488 -0.022447916
-0.010104709 0.013225705 -0.0147218425 0.018973172 -0.016159019 0.018505607 0.013214795 0.021853723
-0.02043496 0.008464942 0.01333301 -0.0075780023 -0.0083748605 0.011818955 -0.010495392 -0.011317114
-0.018552413 -0.020663338 -0.013118481 -0.012980259 0.0244999 -0.009648725 -0.013233099 0.023009943
0.015718779 -0.016131578 0.015536853 -0.017670954 0.013641974 0.022092152 -0.01254932 0.019460373
-0.019295568 -0.018751156 -0.0140169645 -0.011682415 0.029233407 -0.014656906 -0.01589851 0.015396187
-0.020322775 -0.025517117 0.01598009 0.0446894 -0.00651136 -0.009099779 0.021412125 -0.0120861335
0.04611484 0.01844486 -0.021669846 -0.012909307 0.017695969 -0.0121051585 -0.030420711 -0.009021677
-0.013166286 0.0141461 -0.014523647 0.015131079

running_mean f4 [100]
00000000: b238 d63e 4dd9 de3e 5c7c f63e c841 cc3e
00000010: 7e84 0b3f deee 393f 067a 723f c37c 3a3f
00000020: 8866 eb3e 3a76 073f 78e8 223f a90f 0a3f
00000030: aa15 203f aefe 033f 0588 d73e 36d1 1e3f
00000040: cf02 d93e 1e52 fb3e a62c e43e b83d e23e
00000050: 10f5 de3e 5f0e 203f 5317 d73e b8b2 0f3f
00000060: d5b8 063f 5b45 d13e 4b6d fa3e d8ee c83e
00000070: 2c70 fb3e e06c 0e3f 086a 443f f856 e23e
00000080: 3e2d 073f 1de0 093f be45 c63e 6836 1b3f
00000090: 906f 0f3f 3369 d33e faa0 143f 503c 353f
000000a0: f700 0e3f 943c 1d3f 56c3 163f 68b3 533f
000000b0: 57c7 053f e241 033f ed5f 023f 8a3d fc3e
000000c0: 7af4 123f ea55 0e3f c11b 0e3f 91c8 103f
000000d0: e6b2 cf3e c820 093f 17b5 e43e 4872 143f
000000e0: e649 d83e 7106 d43e e71a 053f 04ae 063f
000000f0: c2cd c63e 1e5e 023f eba2 053f c05b e63e
00000100: 7a50 cd3e 4a5d df3e c62c 0d3f 3167 f13e
00000110: 369b c53e 3f7b 0f3f 7610 313f 9742 1d3f
00000120: d93e 3c3f a838 143f 12fd 1c3f 903e e83e
00000130: 4f23 073f 3f19 e73e 26e9 1a3f 0cb8 d03e
00000140: 22dc 0d3f bdce d33e a476 e03e bfbc 173f
00000150: 0ba5 cf3e d06e 023f 8c7d 2b3f 7138 343f
00000160: d27e 073f fe02 003f c78a 9a3e b78b 133f
00000170: 6d0f 263f 5cc5 dd3e cae4 bd3e fe60 3d3f
00000180: e68c 163f 35aa e23e 17fb 033f b133 e83e
0.4184013 0.43525162 0.48141754 0.39893937 0.5449904 0.7263011 0.94717443 0.7284662
0.45976663 0.52914774 0.6363597 0.53930146 0.62533057 0.51560485 0.42095962 0.6203798
0.42384955 0.49086088 0.44565314 0.44187713 0.43546343 0.6252193 0.42009982 0.5613208
0.5262578 0.40873227 0.4891151 0.39244723 0.49109018 0.5563488 0.7672429 0.44206977
0.5280341 0.53857595 0.38725084 0.6062989 0.56029606 0.41291198 0.5805813 0.70795155
0.5547022 0.6142056 0.5889181 0.8269563 0.52257293 0.51272404 0.5092762 0.492657
0.5740429 0.55599844 0.555111 0.5655604 0.40566176 0.53565645 0.4466941 0.5798688
0.4224388 0.41411164 0.51994175 0.52609277 0.38828856 0.5092486 0.5220172 0.44991875
0.4010046 0.4362586 0.55146444 0.4714904 0.3859498 0.56047434 0.6916574 0.61429733
0.735334 0.5789895 0.61323655 0.4536023 0.5278825 0.4513645 0.60512006 0.40765417
0.5541402 0.41368666 0.43840516 0.5927238 0.40555605 0.50950336 0.66988444 0.7039862
0.5292789 0.50004566 0.30184004 0.5763506 0.6486729 0.43314636 0.37088615 0.73976123
0.58808744 0.44270483 0.5155501 0.45351937

running_var f4 [100]
00000000: 249b 9b3e 840d 103f 737c fc3e ea67 b93e
00000010: b8a9 da3e a5f5 0640 65c6 3540 f17d 4f3f
00000020: a12c 5f3f 2a78 203f 134b be3f 2b17 183f
00000030: cb84 873f 61bd c63f 9156 3b3f 26b0 313f
00000040: e719 b03f 6780 893f ba1b b33f 9f87 713f
00000050: 0be2 393f 06f2 2e3f 0bca 0f3f 87fb 023f
00000060: b25c af3f 66ee d03e 3458 653f bc11 143f
00000070: 9dab 7b3f d3dc 513f b687 2040 74cf a33f
00000080: ea8d aa3f 5d52 473f fc94 a03e 321d 143f
00000090: a56b 433f f2f0 ca3e a543 a23f 1c39 e73f
000000a0: 64de 983f 3161 893f 5974 ef3e 1490 1f40
000000b0: 95e0 643f c7d5 263f 7199 443f d7a1 c93e
000000c0: d36b fe3e 408f 2b40 3b04 1f3f 8d93 413f
000000d0: 790b 0d3f 8067 2b3f 61d8 da3e f5f7 0e3f
000000e0: 061e ad3e 0afe 183f 324c 2e3f 5037 293f
000000f0: b617 a83e 67e8 ac3e 48f9 dd3e 9f7d d83e
00000100: 44e6 e53e 649c 873f f5f4 a13f f986 d33e
00000110: b081 af3e c1a1 093f 643c 1d3f 3094 833f
00000120: ed02 583f 4b60 603f df4a 9b3f ff31 283f
00000130: 738b 1d3f 7e37 983e acd6 9d3f 3777 b23e
00000140: 5dde 143f ee39 a13e 2020 103f 4bb6 b23f
00000150: a185 1e3f ce77 f73e 6319 3540 260d 1e3f
00000160: ce22 5f3f 02eb e93e 4506 773e 44ea 3c3f
00000170: 170c d03f f51b 453f 2f87 ba3e 2935 233f
00000180: fa5e 5d3f 3a1d 833f 3bda 023f b0ac 093f
0.303918 0.56270623 0.49313697 0.36212093 0.4270761 2.108743 2.840234 0.81051546
0.87177473 0.62683356 1.4866661 0.5941035 1.05874 1.5526544 0.73178965 0.69409406
1.3757905 1.074231 1.3992836 0.94347566 0.7261054 0.6833805 0.5616767 0.5116505
1.3700163 0.40806884 0.8958771 0.5783956 0.98308736 0.81977576 2.5082831 1.2797685
1.3324559 0.7786005 0.31363666 0.5785705 0.7633613 0.39636952 1.2676893 1.8064303
1.1942868 1.0732785 0.46768454 2.4931688 0.89405185 0.6516995 0.76796633 0.39381287
0.49691638 2.6806183 0.6211583 0.7561577 0.5509563 0.66954803 0.4274321 0.558471
0.3381197 0.5976263 0.68085015 0.66100025 0.3283059 0.3377106 0.4335425 0.4228334
0.4490224 1.0594602 1.265288 0.41313913 0.3427863 0.5376244 0.61420274 1.0279598
0.84379464 0.8764693 1.2132224 0.6570129 0.6154091 0.29729837 1.2331138 0.3485658
0.581518 0.3148951 0.5629902 1.3961881 0.6192265 0.4833359 2.8296745 0.6173881
0.8716248 0.4568711 0.24123485 0.7379496 1.625369 0.76995784 0.36431262 0.6375299
0.8647305 1.0243294 0.51114243 0.53779125

weight f4 [1, 100]
00000000: fb0e 313d 3f60 5a3d 95f9 10bc e84d 1e3d
00000010: 8fe0 90bc 5b51 c6bb c364 ebbc 8530 6abd
00000020: 3d01 cbbb 13fd f3bc 867a 64bc e702 0cbd
00000030: ecee f6bb 1a3b c7bc d325 363d 9742 773d
00000040: 3589 ff3c 827d 5c3c 994a 3cbd 1cf5 edbc
00000050: b617 743c 5116 5abd a52c b83c 4ecd ac3c
00000060: ad70 04bd 46be 3a3c 2063 583c 006d 7a3d
00000070: 852f 07bd 1275 adbc 60ba aabb 8af5 8cbc
00000080: d876 8fbc d0e1 4ebd effb fc3c 1d83 e83c
00000090: 78f7 52bc 49a6 00bd 3be5 4cbc 93ea 10bc
000000a0: b567 cebc ba81 843d 8356 76bd bae9 963c
000000b0: a807 26bc 9bad 2e3d 053e 293d d909 1c3c
000000c0: f622 e0bb 717b 1d3d be66 2f3d d9e8 5abd
000000d0: 32f8 04bd 5596 ae3d 344d cabc 0577 56bd
000000e0: 8d17 ecbc 77bf 82bc e097 8abd ec0c b7bc
000000f0: 1b61 f83c 2f30 22bd aa7b f0bc 2bfc 83bb
00000100: df8f 1c3d 0415 88bc 54e4 193c 13d0 c0bc
00000110: 2217 053d bb05 4e3d 9473 9abd ae81 863c
00000120: bb82 42bd 28dd 27bd cdad 23bd 9740 54bb
00000130: fb2f d83b 92cc bebc 82de 71bd 0c35 093c
00000140: 6e6a f7bc 24f5 b7bc cea2 f03c 2c9d 7dbc
00000150: 6e46 fdbb 6be1 65bd 8db9 423d 1af1 90bd
00000160: 6f39 d3bb 324c 3a3d da4a 52bc f918 0cbd
00000170: 2bfb d03c 3757 13bd 051f b8bb f943 92bd
00000180: 14be e8bc 38d6 023d 3732 05bd 3b9d 623d
0.043227177 0.053314444 -0.0088485675 0.038648516 -0.017685203 -0.006052179 -0.02873457 -0.057175178
-0.006195216 -0.029783761 -0.0139452275 -0.034182455 -0.007535806 -0.024320174 0.044469666 0.06036624
0.031193355 0.013457658 -0.04596958 -0.029047541 0.014898231 -0.05324394 0.022482226 0.02109399
-0.03233402 0.011397904 0.013207227 0.061139107 -0.033004303 -0.021173988 -0.005210206 -0.017206926
-0.017512724 -0.05050832 0.03088185 0.028382832 -0.012876384 -0.031408582 -0.012505825 -0.008844989
-0.025195936 0.06470056 -0.060141098 0.018421996 -0.010133661 0.04264603 0.041318912 0.009523832
-0.006840105 0.0384478 0.042822592 -0.053444717 -0.03246326 0.08524767 -0.024695016 -0.0523596
-0.028819824 -0.015960438 -0.06767249 -0.022345029 0.030319741 -0.039596733 -0.029355843 -0.0040278635
0.038223144 -0.016611584 0.009392817 -0.023536718 0.032492764 0.050298434 -0.07541576 0.016419258
-0.047487956 -0.040982395 -0.03996067 -0.0032387131 0.0065975166 -0.023290906 -0.05905009 0.008374464
-0.030202117 -0.02245576 0.029374506 -0.015479367 -0.007729343 -0.05612318 0.047540236 -0.070772365
-0.0064460556 0.04548282 -0.012835229 -0.034203503 0.025510391 -0.035971846 -0.005618932 -0.07141871
-0.028410949 0.031942576 -0.03251859 0.055325728
